aerodata_pt/AXES.pt (torch, 1883 bytes, 5 tensors)

ALPHA1 f4 [20]
000000 00 00 a0 c1 00 00 70 c1 00 00 20 c1 00 00 a0 c0
       -20.0 -15.0 -10.0 -5.0
000010 00 00 00 00 00 00 a0 40 00 00 20 41 00 00 70 41
       0.0 5.0 10.0 15.0
000020 00 00 a0 41 00 00 c8 41 00 00 f0 41 00 00 0c 42
       20.0 25.0 30.0 35.0
000030 00 00 20 42 00 00 34 42 00 00 48 42 00 00 5c 42
       40.0 45.0 50.0 55.0
000040 00 00 70 42 00 00 8c 42 00 00 a0 42 00 00 b4 42
       60.0 70.0 80.0 90.0

ALPHA2 f4 [14]
000000 00 00 a0 c1 00 00 70 c1 00 00 20 c1 00 00 a0 c0
       -20.0 -15.0 -10.0 -5.0
000010 00 00 00 00 00 00 a0 40 00 00 20 41 00 00 70 41
       0.0 5.0 10.0 15.0
000020 00 00 a0 41 00 00 c8 41 00 00 f0 41 00 00 0c 42
       20.0 25.0 30.0 35.0
000030 00 00 20 42 00 00 34 42
       40.0 45.0

BETA1 f4 [19]
000000 00 00 f0 c1 00 00 c8 c1 00 00 a0 c1 00 00 70 c1
       -30.0 -25.0 -20.0 -15.0
000010 00 00 20 c1 00 00 00 c1 00 00 c0 c0 00 00 80 c0
       -10.0 -8.0 -6.0 -4.0
000020 00 00 00 c0 00 00 00 00 00 00 00 40 00 00 80 40
       -2.0 0.0 2.0 4.0
000030 00 00 c0 40 00 00 00 41 00 00 20 41 00 00 70 41
       6.0 8.0 10.0 15.0
000040 00 00 a0 41 00 00 c8 41 00 00 f0 41
       20.0 25.0 30.0

DH1 f4 [5]
000000 00 00 c8 c1 00 00 20 c1 00 00 00 00 00 00 20 41
       -25.0 -10.0 0.0 10.0
000010 00 00 c8 41
       25.0

DH2 f4 [3]
000000 00 00 c8 c1 00 00 00 00 00 00 c8 41
       -25.0 0.0 25.0
